{"format": "graph-model", "generatedBy": "2.12.0", "convertedBy": "TensorFlow.js Converter v4.5.0", "signature": {"inputs": {"unknown:0": {"name": "unknown:0", "dtype": "DT_RESOURCE", "tensorShape": {}, "resourceId": 679}, "input_1": {"name": "input_1:0", "dtype": "DT_FLOAT", "tensorShape": {"dim": [{"size": "-1"}, {"size": "24"}]}}}, "outputs": {"output_1": {"name": "Identity:0", "dtype": "DT_FLOAT", "tensorShape": {"dim": [{"size": "-1"}, {"size": "1"}]}}}}, "modelTopology": {"node": [{"name": "input_1", "op": "Placeholder", "attr": {"dtype": {"type": "DT_FLOAT"}, "shape": {"shape": {"dim": [{"size": "-1"}, {"size": "24"}]}}}}, {"name": "unknown", "op": "Placeholder", "attr": {"shape": {"shape": {}}, "dtype": {"type": "DT_RESOURCE"}}}, {"name": "Func/StatefulPartitionedCall/gradient_boosted_trees_model_5/StatefulPartitionedCall/input_control_node/_4", "op": "NoOp", "input": ["^input_1", "^unknown"], "attr": {"_has_manual_control_dependencies": {"b": true}}}, {"name": "StatefulPartitionedCall/gradient_boosted_trees_model_5/StatefulPartitionedCall/PartitionedCall/strided_slice/stack", "op": "Const", "input": ["^Func/StatefulPartitionedCall/gradient_boosted_trees_model_5/StatefulPartitionedCall/input_control_node/_4"], "attr": {"value": {"tensor": {"dtype": "DT_INT32", "tensorShape": {"dim": [{"size": "2"}]}}}, "dtype": {"type": "DT_INT32"}}}, {"name": "StatefulPartitionedCall/gradient_boosted_trees_model_5/StatefulPartitionedCall/PartitionedCall/strided_slice/stack_1", "op": "Const", "input": ["^Func/StatefulPartitionedCall/gradient_boosted_trees_model_5/StatefulPartitionedCall/input_control_node/_4"], "attr": {"value": {"tensor": {"dtype": "DT_INT32", "tensorShape": {"dim": [{"size": "2"}]}}}, "dtype": {"type": "DT_INT32"}}}, {"name": "StatefulPartitionedCall/gradient_boosted_trees_model_5/StatefulPartitionedCall/PartitionedCall/strided_slice/stack_2", "op": "Const", "input": ["^Func/StatefulPartitionedCall/gradient_boosted_trees_model_5/StatefulPartitionedCall/input_control_node/_4"], "attr": {"value": {"tensor": {"dtype": "DT_INT32", "tensorShape": {"dim": [{"size": "2"}]}}}, "dtype": {"type": "DT_INT32"}}}, {"name": "StatefulPartitionedCall/gradient_boosted_trees_model_5/StatefulPartitionedCall/PartitionedCall/strided_slice_1/stack", "op": "Const", "input": ["^Func/StatefulPartitionedCall/gradient_boosted_trees_model_5/StatefulPartitionedCall/input_control_node/_4"], "attr": {"dtype": {"type": "DT_INT32"}, "value": {"tensor": {"dtype": "DT_INT32", "tensorShape": {"dim": [{"size": "2"}]}}}}}, {"name": "StatefulPartitionedCall/gradient_boosted_trees_model_5/StatefulPartitionedCall/PartitionedCall/strided_slice_1/stack_1", "op": "Const", "input": ["^Func/StatefulPartitionedCall/gradient_boosted_trees_model_5/StatefulPartitionedCall/input_control_node/_4"], "attr": {"value": {"tensor": {"dtype": "DT_INT32", "tensorShape": {"dim": [{"size": "2"}]}}}, "dtype": {"type": "DT_INT32"}}}, {"name": "StatefulPartitionedCall/gradient_boosted_trees_model_5/StatefulPartitionedCall/PartitionedCall/strided_slice_1/stack_2", "op": "Const", "input": ["^Func/StatefulPartitionedCall/gradient_boosted_trees_model_5/StatefulPartitionedCall/input_control_node/_4"], "attr": {"dtype": {"type": "DT_INT32"}, "value": {"tensor": {"dtype": "DT_INT32", "tensorShape": {"dim": [{"size": "2"}]}}}}}, {"name": "StatefulPartitionedCall/gradient_boosted_trees_model_5/StatefulPartitionedCall/PartitionedCall/strided_slice_10/stack", "op": "Const", "input": ["^Func/StatefulPartitionedCall/gradient_boosted_trees_model_5/StatefulPartitionedCall/input_control_node/_4"], "attr": {"value": {"tensor": {"dtype": "DT_INT32", "tensorShape": {"dim": [{"size": "2"}]}}}, "dtype": {"type": "DT_INT32"}}}, {"name": "StatefulPartitionedCall/gradient_boosted_trees_model_5/StatefulPartitionedCall/PartitionedCall/strided_slice_10/stack_1", "op": "Const", "input": ["^Func/StatefulPartitionedCall/gradient_boosted_trees_model_5/StatefulPartitionedCall/input_control_node/_4"], "attr": {"dtype": {"type": "DT_INT32"}, "value": {"tensor": {"dtype": "DT_INT32", "tensorShape": {"dim": [{"size": "2"}]}}}}}, {"name": "StatefulPartitionedCall/gradient_boosted_trees_model_5/StatefulPartitionedCall/PartitionedCall/strided_slice_10/stack_2", "op": "Const", "input": ["^Func/StatefulPartitionedCall/gradient_boosted_trees_model_5/StatefulPartitionedCall/input_control_node/_4"], "attr": {"dtype": {"type": "DT_INT32"}, "value": {"tensor": {"dtype": "DT_INT32", "tensorShape": {"dim": [{"size": "2"}]}}}}}, {"name": "StatefulPartitionedCall/gradient_boosted_trees_model_5/StatefulPartitionedCall/PartitionedCall/strided_slice_11/stack", "op": "Const", "input": ["^Func/StatefulPartitionedCall/gradient_boosted_trees_model_5/StatefulPartitionedCall/input_control_node/_4"], "attr": {"dtype": {"type": "DT_INT32"}, "value": {"tensor": {"dtype": "DT_INT32", "tensorShape": {"dim": [{"size": "2"}]}}}}}, {"name": "StatefulPartitionedCall/gradient_boosted_trees_model_5/StatefulPartitionedCall/PartitionedCall/strided_slice_11/stack_1", "op": "Const", "input": ["^Func/StatefulPartitionedCall/gradient_boosted_trees_model_5/StatefulPartitionedCall/input_control_node/_4"], "attr": {"dtype": {"type": "DT_INT32"}, "value": {"tensor": {"dtype": "DT_INT32", "tensorShape": {"dim": [{"size": "2"}]}}}}}, {"name": "StatefulPartitionedCall/gradient_boosted_trees_model_5/StatefulPartitionedCall/PartitionedCall/strided_slice_11/stack_2", "op": "Const", "input": ["^Func/StatefulPartitionedCall/gradient_boosted_trees_model_5/StatefulPartitionedCall/input_control_node/_4"], "attr": {"dtype": {"type": "DT_INT32"}, "value": {"tensor": {"dtype": "DT_INT32", "tensorShape": {"dim": [{"size": "2"}]}}}}}, {"name": "StatefulPartitionedCall/gradient_boosted_trees_model_5/StatefulPartitionedCall/PartitionedCall/strided_slice_12/stack", "op": "Const", "input": ["^Func/StatefulPartitionedCall/gradient_boosted_trees_model_5/StatefulPartitionedCall/input_control_node/_4"], "attr": {"dtype": {"type": "DT_INT32"}, "value": {"tensor": {"dtype": "DT_INT32", "tensorShape": {"dim": [{"size": "2"}]}}}}}, {"name": "StatefulPartitionedCall/gradient_boosted_trees_model_5/StatefulPartitionedCall/PartitionedCall/strided_slice_12/stack_1", "op": "Const", "input": ["^Func/StatefulPartitionedCall/gradient_boosted_trees_model_5/StatefulPartitionedCall/input_control_node/_4"], "attr": {"value": {"tensor": {"dtype": "DT_INT32", "tensorShape": {"dim": [{"size": "2"}]}}}, "dtype": {"type": "DT_INT32"}}}, {"name": "StatefulPartitionedCall/gradient_boosted_trees_model_5/StatefulPartitionedCall/PartitionedCall/strided_slice_12/stack_2", "op": "Const", "input": ["^Func/StatefulPartitionedCall/gradient_boosted_trees_model_5/StatefulPartitionedCall/input_control_node/_4"], "attr": {"value": {"tensor": {"dtype": "DT_INT32", "tensorShape": {"dim": [{"size": "2"}]}}}, "dtype": {"type": "DT_INT32"}}}, {"name": "StatefulPartitionedCall/gradient_boosted_trees_model_5/StatefulPartitionedCall/PartitionedCall/strided_slice_13/stack", "op": "Const", "input": ["^Func/StatefulPartitionedCall/gradient_boosted_trees_model_5/StatefulPartitionedCall/input_control_node/_4"], "attr": {"dtype": {"type": "DT_INT32"}, "value": {"tensor": {"dtype": "DT_INT32", "tensorShape": {"dim": [{"size": "2"}]}}}}}, {"name": "StatefulPartitionedCall/gradient_boosted_trees_model_5/StatefulPartitionedCall/PartitionedCall/strided_slice_13/stack_1", "op": "Const", "input": ["^Func/StatefulPartitionedCall/gradient_boosted_trees_model_5/StatefulPartitionedCall/input_control_node/_4"], "attr": {"value": {"tensor": {"dtype": "DT_INT32", "tensorShape": {"dim": [{"size": "2"}]}}}, "dtype": {"type": "DT_INT32"}}}, {"name": "StatefulPartitionedCall/gradient_boosted_trees_model_5/StatefulPartitionedCall/PartitionedCall/strided_slice_13/stack_2", "op": "Const", "input": ["^Func/StatefulPartitionedCall/gradient_boosted_trees_model_5/StatefulPartitionedCall/input_control_node/_4"], "attr": {"value": {"tensor": {"dtype": "DT_INT32", "tensorShape": {"dim": [{"size": "2"}]}}}, "dtype": {"type": "DT_INT32"}}}, {"name": "StatefulPartitionedCall/gradient_boosted_trees_model_5/StatefulPartitionedCall/PartitionedCall/strided_slice_14/stack", "op": "Const", "input": ["^Func/StatefulPartitionedCall/gradient_boosted_trees_model_5/StatefulPartitionedCall/input_control_node/_4"], "attr": {"dtype": {"type": "DT_INT32"}, "value": {"tensor": {"dtype": "DT_INT32", "tensorShape": {"dim": [{"size": "2"}]}}}}}, {"name": "StatefulPartitionedCall/gradient_boosted_trees_model_5/StatefulPartitionedCall/PartitionedCall/strided_slice_14/stack_1", "op": "Const", "input": ["^Func/StatefulPartitionedCall/gradient_boosted_trees_model_5/StatefulPartitionedCall/input_control_node/_4"], "attr": {"dtype": {"type": "DT_INT32"}, "value": {"tensor": {"dtype": "DT_INT32", "tensorShape": {"dim": [{"size": "2"}]}}}}}, {"name": "StatefulPartitionedCall/gradient_boosted_trees_model_5/StatefulPartitionedCall/PartitionedCall/strided_slice_14/stack_2", "op": "Const", "input": ["^Func/StatefulPartitionedCall/gradient_boosted_trees_model_5/StatefulPartitionedCall/input_control_node/_4"], "attr": {"value": {"tensor": {"dtype": "DT_INT32", "tensorShape": {"dim": [{"size": "2"}]}}}, "dtype": {"type": "DT_INT32"}}}, {"name": "StatefulPartitionedCall/gradient_boosted_trees_model_5/StatefulPartitionedCall/PartitionedCall/strided_slice_15/stack", "op": "Const", "input": ["^Func/StatefulPartitionedCall/gradient_boosted_trees_model_5/StatefulPartitionedCall/input_control_node/_4"], "attr": {"value": {"tensor": {"dtype": "DT_INT32", "tensorShape": {"dim": [{"size": "2"}]}}}, "dtype": {"type": "DT_INT32"}}}, {"name": "StatefulPartitionedCall/gradient_boosted_trees_model_5/StatefulPartitionedCall/PartitionedCall/strided_slice_15/stack_1", "op": "Const", "input": ["^Func/StatefulPartitionedCall/gradient_boosted_trees_model_5/StatefulPartitionedCall/input_control_node/_4"], "attr": {"value": {"tensor": {"dtype": "DT_INT32", "tensorShape": {"dim": [{"size": "2"}]}}}, "dtype": {"type": "DT_INT32"}}}, {"name": "StatefulPartitionedCall/gradient_boosted_trees_model_5/StatefulPartitionedCall/PartitionedCall/strided_slice_15/stack_2", "op": "Const", "input": ["^Func/StatefulPartitionedCall/gradient_boosted_trees_model_5/StatefulPartitionedCall/input_control_node/_4"], "attr": {"value": {"tensor": {"dtype": "DT_INT32", "tensorShape": {"dim": [{"size": "2"}]}}}, "dtype": {"type": "DT_INT32"}}}, {"name": "StatefulPartitionedCall/gradient_boosted_trees_model_5/StatefulPartitionedCall/PartitionedCall/strided_slice_16/stack", "op": "Const", "input": ["^Func/StatefulPartitionedCall/gradient_boosted_trees_model_5/StatefulPartitionedCall/input_control_node/_4"], "attr": {"dtype": {"type": "DT_INT32"}, "value": {"tensor": {"dtype": "DT_INT32", "tensorShape": {"dim": [{"size": "2"}]}}}}}, {"name": "StatefulPartitionedCall/gradient_boosted_trees_model_5/StatefulPartitionedCall/PartitionedCall/strided_slice_16/stack_1", "op": "Const", "input": ["^Func/StatefulPartitionedCall/gradient_boosted_trees_model_5/StatefulPartitionedCall/input_control_node/_4"], "attr": {"value": {"tensor": {"dtype": "DT_INT32", "tensorShape": {"dim": [{"size": "2"}]}}}, "dtype": {"type": "DT_INT32"}}}, {"name": "StatefulPartitionedCall/gradient_boosted_trees_model_5/StatefulPartitionedCall/PartitionedCall/strided_slice_16/stack_2", "op": "Const", "input": ["^Func/StatefulPartitionedCall/gradient_boosted_trees_model_5/StatefulPartitionedCall/input_control_node/_4"], "attr": {"value": {"tensor": {"dtype": "DT_INT32", "tensorShape": {"dim": [{"size": "2"}]}}}, "dtype": {"type": "DT_INT32"}}}, {"name": "StatefulPartitionedCall/gradient_boosted_trees_model_5/StatefulPartitionedCall/PartitionedCall/strided_slice_17/stack", "op": "Const", "input": ["^Func/StatefulPartitionedCall/gradient_boosted_trees_model_5/StatefulPartitionedCall/input_control_node/_4"], "attr": {"value": {"tensor": {"dtype": "DT_INT32", "tensorShape": {"dim": [{"size": "2"}]}}}, "dtype": {"type": "DT_INT32"}}}, {"name": "StatefulPartitionedCall/gradient_boosted_trees_model_5/StatefulPartitionedCall/PartitionedCall/strided_slice_17/stack_1", "op": "Const", "input": ["^Func/StatefulPartitionedCall/gradient_boosted_trees_model_5/StatefulPartitionedCall/input_control_node/_4"], "attr": {"dtype": {"type": "DT_INT32"}, "value": {"tensor": {"dtype": "DT_INT32", "tensorShape": {"dim": [{"size": "2"}]}}}}}, {"name": "StatefulPartitionedCall/gradient_boosted_trees_model_5/StatefulPartitionedCall/PartitionedCall/strided_slice_17/stack_2", "op": "Const", "input": ["^Func/StatefulPartitionedCall/gradient_boosted_trees_model_5/StatefulPartitionedCall/input_control_node/_4"], "attr": {"value": {"tensor": {"dtype": "DT_INT32", "tensorShape": {"dim": [{"size": "2"}]}}}, "dtype": {"type": "DT_INT32"}}}, {"name": "StatefulPartitionedCall/gradient_boosted_trees_model_5/StatefulPartitionedCall/PartitionedCall/strided_slice_18/stack", "op": "Const", "input": ["^Func/StatefulPartitionedCall/gradient_boosted_trees_model_5/StatefulPartitionedCall/input_control_node/_4"], "attr": {"value": {"tensor": {"dtype": "DT_INT32", "tensorShape": {"dim": [{"size": "2"}]}}}, "dtype": {"type": "DT_INT32"}}}, {"name": "StatefulPartitionedCall/gradient_boosted_trees_model_5/StatefulPartitionedCall/PartitionedCall/strided_slice_18/stack_1", "op": "Const", "input": ["^Func/StatefulPartitionedCall/gradient_boosted_trees_model_5/StatefulPartitionedCall/input_control_node/_4"], "attr": {"dtype": {"type": "DT_INT32"}, "value": {"tensor": {"dtype": "DT_INT32", "tensorShape": {"dim": [{"size": "2"}]}}}}}, {"name": "StatefulPartitionedCall/gradient_boosted_trees_model_5/StatefulPartitionedCall/PartitionedCall/strided_slice_18/stack_2", "op": "Const", "input": ["^Func/StatefulPartitionedCall/gradient_boosted_trees_model_5/StatefulPartitionedCall/input_control_node/_4"], "attr": {"value": {"tensor": {"dtype": "DT_INT32", "tensorShape": {"dim": [{"size": "2"}]}}}, "dtype": {"type": "DT_INT32"}}}, {"name": "StatefulPartitionedCall/gradient_boosted_trees_model_5/StatefulPartitionedCall/PartitionedCall/strided_slice_19/stack", "op": "Const", "input": ["^Func/StatefulPartitionedCall/gradient_boosted_trees_model_5/StatefulPartitionedCall/input_control_node/_4"], "attr": {"dtype": {"type": "DT_INT32"}, "value": {"tensor": {"dtype": "DT_INT32", "tensorShape": {"dim": [{"size": "2"}]}}}}}, {"name": "StatefulPartitionedCall/gradient_boosted_trees_model_5/StatefulPartitionedCall/PartitionedCall/strided_slice_19/stack_1", "op": "Const", "input": ["^Func/StatefulPartitionedCall/gradient_boosted_trees_model_5/StatefulPartitionedCall/input_control_node/_4"], "attr": {"value": {"tensor": {"dtype": "DT_INT32", "tensorShape": {"dim": [{"size": "2"}]}}}, "dtype": {"type": "DT_INT32"}}}, {"name": "StatefulPartitionedCall/gradient_boosted_trees_model_5/StatefulPartitionedCall/PartitionedCall/strided_slice_19/stack_2", "op": "Const", "input": ["^Func/StatefulPartitionedCall/gradient_boosted_trees_model_5/StatefulPartitionedCall/input_control_node/_4"], "attr": {"dtype": {"type": "DT_INT32"}, "value": {"tensor": {"dtype": "DT_INT32", "tensorShape": {"dim": [{"size": "2"}]}}}}}, {"name": "StatefulPartitionedCall/gradient_boosted_trees_model_5/StatefulPartitionedCall/PartitionedCall/strided_slice_2/stack", "op": "Const", "input": ["^Func/StatefulPartitionedCall/gradient_boosted_trees_model_5/StatefulPartitionedCall/input_control_node/_4"], "attr": {"value": {"tensor": {"dtype": "DT_INT32", "tensorShape": {"dim": [{"size": "2"}]}}}, "dtype": {"type": "DT_INT32"}}}, {"name": "StatefulPartitionedCall/gradient_boosted_trees_model_5/StatefulPartitionedCall/PartitionedCall/strided_slice_2/stack_1", "op": "Const", "input": ["^Func/StatefulPartitionedCall/gradient_boosted_trees_model_5/StatefulPartitionedCall/input_control_node/_4"], "attr": {"dtype": {"type": "DT_INT32"}, "value": {"tensor": {"dtype": "DT_INT32", "tensorShape": {"dim": [{"size": "2"}]}}}}}, {"name": "StatefulPartitionedCall/gradient_boosted_trees_model_5/StatefulPartitionedCall/PartitionedCall/strided_slice_2/stack_2", "op": "Const", "input": ["^Func/StatefulPartitionedCall/gradient_boosted_trees_model_5/StatefulPartitionedCall/input_control_node/_4"], "attr": {"value": {"tensor": {"dtype": "DT_INT32", "tensorShape": {"dim": [{"size": "2"}]}}}, "dtype": {"type": "DT_INT32"}}}, {"name": "StatefulPartitionedCall/gradient_boosted_trees_model_5/StatefulPartitionedCall/PartitionedCall/strided_slice_20/stack", "op": "Const", "input": ["^Func/StatefulPartitionedCall/gradient_boosted_trees_model_5/StatefulPartitionedCall/input_control_node/_4"], "attr": {"value": {"tensor": {"dtype": "DT_INT32", "tensorShape": {"dim": [{"size": "2"}]}}}, "dtype": {"type": "DT_INT32"}}}, {"name": "StatefulPartitionedCall/gradient_boosted_trees_model_5/StatefulPartitionedCall/PartitionedCall/strided_slice_20/stack_1", "op": "Const", "input": ["^Func/StatefulPartitionedCall/gradient_boosted_trees_model_5/StatefulPartitionedCall/input_control_node/_4"], "attr": {"value": {"tensor": {"dtype": "DT_INT32", "tensorShape": {"dim": [{"size": "2"}]}}}, "dtype": {"type": "DT_INT32"}}}, {"name": "StatefulPartitionedCall/gradient_boosted_trees_model_5/StatefulPartitionedCall/PartitionedCall/strided_slice_20/stack_2", "op": "Const", "input": ["^Func/StatefulPartitionedCall/gradient_boosted_trees_model_5/StatefulPartitionedCall/input_control_node/_4"], "attr": {"value": {"tensor": {"dtype": "DT_INT32", "tensorShape": {"dim": [{"size": "2"}]}}}, "dtype": {"type": "DT_INT32"}}}, {"name": "StatefulPartitionedCall/gradient_boosted_trees_model_5/StatefulPartitionedCall/PartitionedCall/strided_slice_21/stack", "op": "Const", "input": ["^Func/StatefulPartitionedCall/gradient_boosted_trees_model_5/StatefulPartitionedCall/input_control_node/_4"], "attr": {"value": {"tensor": {"dtype": "DT_INT32", "tensorShape": {"dim": [{"size": "2"}]}}}, "dtype": {"type": "DT_INT32"}}}, {"name": "StatefulPartitionedCall/gradient_boosted_trees_model_5/StatefulPartitionedCall/PartitionedCall/strided_slice_21/stack_1", "op": "Const", "input": ["^Func/StatefulPartitionedCall/gradient_boosted_trees_model_5/StatefulPartitionedCall/input_control_node/_4"], "attr": {"dtype": {"type": "DT_INT32"}, "value": {"tensor": {"dtype": "DT_INT32", "tensorShape": {"dim": [{"size": "2"}]}}}}}, {"name": "StatefulPartitionedCall/gradient_boosted_trees_model_5/StatefulPartitionedCall/PartitionedCall/strided_slice_21/stack_2", "op": "Const", "input": ["^Func/StatefulPartitionedCall/gradient_boosted_trees_model_5/StatefulPartitionedCall/input_control_node/_4"], "attr": {"value": {"tensor": {"dtype": "DT_INT32", "tensorShape": {"dim": [{"size": "2"}]}}}, "dtype": {"type": "DT_INT32"}}}, {"name": "StatefulPartitionedCall/gradient_boosted_trees_model_5/StatefulPartitionedCall/PartitionedCall/strided_slice_22/stack", "op": "Const", "input": ["^Func/StatefulPartitionedCall/gradient_boosted_trees_model_5/StatefulPartitionedCall/input_control_node/_4"], "attr": {"dtype": {"type": "DT_INT32"}, "value": {"tensor": {"dtype": "DT_INT32", "tensorShape": {"dim": [{"size": "2"}]}}}}}, {"name": "StatefulPartitionedCall/gradient_boosted_trees_model_5/StatefulPartitionedCall/PartitionedCall/strided_slice_22/stack_1", "op": "Const", "input": ["^Func/StatefulPartitionedCall/gradient_boosted_trees_model_5/StatefulPartitionedCall/input_control_node/_4"], "attr": {"value": {"tensor": {"dtype": "DT_INT32", "tensorShape": {"dim": [{"size": "2"}]}}}, "dtype": {"type": "DT_INT32"}}}, {"name": "StatefulPartitionedCall/gradient_boosted_trees_model_5/StatefulPartitionedCall/PartitionedCall/strided_slice_22/stack_2", "op": "Const", "input": ["^Func/StatefulPartitionedCall/gradient_boosted_trees_model_5/StatefulPartitionedCall/input_control_node/_4"], "attr": {"dtype": {"type": "DT_INT32"}, "value": {"tensor": {"dtype": "DT_INT32", "tensorShape": {"dim": [{"size": "2"}]}}}}}, {"name": "StatefulPartitionedCall/gradient_boosted_trees_model_5/StatefulPartitionedCall/PartitionedCall/strided_slice_23/stack", "op": "Const", "input": ["^Func/StatefulPartitionedCall/gradient_boosted_trees_model_5/StatefulPartitionedCall/input_control_node/_4"], "attr": {"value": {"tensor": {"dtype": "DT_INT32", "tensorShape": {"dim": [{"size": "2"}]}}}, "dtype": {"type": "DT_INT32"}}}, {"name": "StatefulPartitionedCall/gradient_boosted_trees_model_5/StatefulPartitionedCall/PartitionedCall/strided_slice_23/stack_1", "op": "Const", "input": ["^Func/StatefulPartitionedCall/gradient_boosted_trees_model_5/StatefulPartitionedCall/input_control_node/_4"], "attr": {"value": {"tensor": {"dtype": "DT_INT32", "tensorShape": {"dim": [{"size": "2"}]}}}, "dtype": {"type": "DT_INT32"}}}, {"name": "StatefulPartitionedCall/gradient_boosted_trees_model_5/StatefulPartitionedCall/PartitionedCall/strided_slice_23/stack_2", "op": "Const", "input": ["^Func/StatefulPartitionedCall/gradient_boosted_trees_model_5/StatefulPartitionedCall/input_control_node/_4"], "attr": {"dtype": {"type": "DT_INT32"}, "value": {"tensor": {"dtype": "DT_INT32", "tensorShape": {"dim": [{"size": "2"}]}}}}}, {"name": "StatefulPartitionedCall/gradient_boosted_trees_model_5/StatefulPartitionedCall/PartitionedCall/strided_slice_3/stack", "op": "Const", "input": ["^Func/StatefulPartitionedCall/gradient_boosted_trees_model_5/StatefulPartitionedCall/input_control_node/_4"], "attr": {"value": {"tensor": {"dtype": "DT_INT32", "tensorShape": {"dim": [{"size": "2"}]}}}, "dtype": {"type": "DT_INT32"}}}, {"name": "StatefulPartitionedCall/gradient_boosted_trees_model_5/StatefulPartitionedCall/PartitionedCall/strided_slice_3/stack_1", "op": "Const", "input": ["^Func/StatefulPartitionedCall/gradient_boosted_trees_model_5/StatefulPartitionedCall/input_control_node/_4"], "attr": {"value": {"tensor": {"dtype": "DT_INT32", "tensorShape": {"dim": [{"size": "2"}]}}}, "dtype": {"type": "DT_INT32"}}}, {"name": "StatefulPartitionedCall/gradient_boosted_trees_model_5/StatefulPartitionedCall/PartitionedCall/strided_slice_3/stack_2", "op": "Const", "input": ["^Func/StatefulPartitionedCall/gradient_boosted_trees_model_5/StatefulPartitionedCall/input_control_node/_4"], "attr": {"value": {"tensor": {"dtype": "DT_INT32", "tensorShape": {"dim": [{"size": "2"}]}}}, "dtype": {"type": "DT_INT32"}}}, {"name": "StatefulPartitionedCall/gradient_boosted_trees_model_5/StatefulPartitionedCall/PartitionedCall/strided_slice_4/stack", "op": "Const", "input": ["^Func/StatefulPartitionedCall/gradient_boosted_trees_model_5/StatefulPartitionedCall/input_control_node/_4"], "attr": {"dtype": {"type": "DT_INT32"}, "value": {"tensor": {"dtype": "DT_INT32", "tensorShape": {"dim": [{"size": "2"}]}}}}}, {"name": "StatefulPartitionedCall/gradient_boosted_trees_model_5/StatefulPartitionedCall/PartitionedCall/strided_slice_4/stack_1", "op": "Const", "input": ["^Func/StatefulPartitionedCall/gradient_boosted_trees_model_5/StatefulPartitionedCall/input_control_node/_4"], "attr": {"dtype": {"type": "DT_INT32"}, "value": {"tensor": {"dtype": "DT_INT32", "tensorShape": {"dim": [{"size": "2"}]}}}}}, {"name": "StatefulPartitionedCall/gradient_boosted_trees_model_5/StatefulPartitionedCall/PartitionedCall/strided_slice_4/stack_2", "op": "Const", "input": ["^Func/StatefulPartitionedCall/gradient_boosted_trees_model_5/StatefulPartitionedCall/input_control_node/_4"], "attr": {"dtype": {"type": "DT_INT32"}, "value": {"tensor": {"dtype": "DT_INT32", "tensorShape": {"dim": [{"size": "2"}]}}}}}, {"name": "StatefulPartitionedCall/gradient_boosted_trees_model_5/StatefulPartitionedCall/PartitionedCall/strided_slice_5/stack", "op": "Const", "input": ["^Func/StatefulPartitionedCall/gradient_boosted_trees_model_5/StatefulPartitionedCall/input_control_node/_4"], "attr": {"dtype": {"type": "DT_INT32"}, "value": {"tensor": {"dtype": "DT_INT32", "tensorShape": {"dim": [{"size": "2"}]}}}}}, {"name": "StatefulPartitionedCall/gradient_boosted_trees_model_5/StatefulPartitionedCall/PartitionedCall/strided_slice_5/stack_1", "op": "Const", "input": ["^Func/StatefulPartitionedCall/gradient_boosted_trees_model_5/StatefulPartitionedCall/input_control_node/_4"], "attr": {"value": {"tensor": {"dtype": "DT_INT32", "tensorShape": {"dim": [{"size": "2"}]}}}, "dtype": {"type": "DT_INT32"}}}, {"name": "StatefulPartitionedCall/gradient_boosted_trees_model_5/StatefulPartitionedCall/PartitionedCall/strided_slice_5/stack_2", "op": "Const", "input": ["^Func/StatefulPartitionedCall/gradient_boosted_trees_model_5/StatefulPartitionedCall/input_control_node/_4"], "attr": {"dtype": {"type": "DT_INT32"}, "value": {"tensor": {"dtype": "DT_INT32", "tensorShape": {"dim": [{"size": "2"}]}}}}}, {"name": "StatefulPartitionedCall/gradient_boosted_trees_model_5/StatefulPartitionedCall/PartitionedCall/strided_slice_6/stack", "op": "Const", "input": ["^Func/StatefulPartitionedCall/gradient_boosted_trees_model_5/StatefulPartitionedCall/input_control_node/_4"], "attr": {"value": {"tensor": {"dtype": "DT_INT32", "tensorShape": {"dim": [{"size": "2"}]}}}, "dtype": {"type": "DT_INT32"}}}, {"name": "StatefulPartitionedCall/gradient_boosted_trees_model_5/StatefulPartitionedCall/PartitionedCall/strided_slice_6/stack_1", "op": "Const", "input": ["^Func/StatefulPartitionedCall/gradient_boosted_trees_model_5/StatefulPartitionedCall/input_control_node/_4"], "attr": {"dtype": {"type": "DT_INT32"}, "value": {"tensor": {"dtype": "DT_INT32", "tensorShape": {"dim": [{"size": "2"}]}}}}}, {"name": "StatefulPartitionedCall/gradient_boosted_trees_model_5/StatefulPartitionedCall/PartitionedCall/strided_slice_6/stack_2", "op": "Const", "input": ["^Func/StatefulPartitionedCall/gradient_boosted_trees_model_5/StatefulPartitionedCall/input_control_node/_4"], "attr": {"dtype": {"type": "DT_INT32"}, "value": {"tensor": {"dtype": "DT_INT32", "tensorShape": {"dim": [{"size": "2"}]}}}}}, {"name": "StatefulPartitionedCall/gradient_boosted_trees_model_5/StatefulPartitionedCall/PartitionedCall/strided_slice_7/stack", "op": "Const", "input": ["^Func/StatefulPartitionedCall/gradient_boosted_trees_model_5/StatefulPartitionedCall/input_control_node/_4"], "attr": {"dtype": {"type": "DT_INT32"}, "value": {"tensor": {"dtype": "DT_INT32", "tensorShape": {"dim": [{"size": "2"}]}}}}}, {"name": "StatefulPartitionedCall/gradient_boosted_trees_model_5/StatefulPartitionedCall/PartitionedCall/strided_slice_7/stack_1", "op": "Const", "input": ["^Func/StatefulPartitionedCall/gradient_boosted_trees_model_5/StatefulPartitionedCall/input_control_node/_4"], "attr": {"value": {"tensor": {"dtype": "DT_INT32", "tensorShape": {"dim": [{"size": "2"}]}}}, "dtype": {"type": "DT_INT32"}}}, {"name": "StatefulPartitionedCall/gradient_boosted_trees_model_5/StatefulPartitionedCall/PartitionedCall/strided_slice_7/stack_2", "op": "Const", "input": ["^Func/StatefulPartitionedCall/gradient_boosted_trees_model_5/StatefulPartitionedCall/input_control_node/_4"], "attr": {"dtype": {"type": "DT_INT32"}, "value": {"tensor": {"dtype": "DT_INT32", "tensorShape": {"dim": [{"size": "2"}]}}}}}, {"name": "StatefulPartitionedCall/gradient_boosted_trees_model_5/StatefulPartitionedCall/PartitionedCall/strided_slice_8/stack", "op": "Const", "input": ["^Func/StatefulPartitionedCall/gradient_boosted_trees_model_5/StatefulPartitionedCall/input_control_node/_4"], "attr": {"value": {"tensor": {"dtype": "DT_INT32", "tensorShape": {"dim": [{"size": "2"}]}}}, "dtype": {"type": "DT_INT32"}}}, {"name": "StatefulPartitionedCall/gradient_boosted_trees_model_5/StatefulPartitionedCall/PartitionedCall/strided_slice_8/stack_1", "op": "Const", "input": ["^Func/StatefulPartitionedCall/gradient_boosted_trees_model_5/StatefulPartitionedCall/input_control_node/_4"], "attr": {"value": {"tensor": {"dtype": "DT_INT32", "tensorShape": {"dim": [{"size": "2"}]}}}, "dtype": {"type": "DT_INT32"}}}, {"name": "StatefulPartitionedCall/gradient_boosted_trees_model_5/StatefulPartitionedCall/PartitionedCall/strided_slice_8/stack_2", "op": "Const", "input": ["^Func/StatefulPartitionedCall/gradient_boosted_trees_model_5/StatefulPartitionedCall/input_control_node/_4"], "attr": {"dtype": {"type": "DT_INT32"}, "value": {"tensor": {"dtype": "DT_INT32", "tensorShape": {"dim": [{"size": "2"}]}}}}}, {"name": "Func/StatefulPartitionedCall/gradient_boosted_trees_model_5/StatefulPartitionedCall/PartitionedCall/input/_10", "op": "Identity", "input": ["input_1", "^Func/StatefulPartitionedCall/gradient_boosted_trees_model_5/StatefulPartitionedCall/input_control_node/_4"], "attr": {"T": {"type": "DT_FLOAT"}}}, {"name": "StatefulPartitionedCall/gradient_boosted_trees_model_5/StatefulPartitionedCall/PartitionedCall/strided_slice_9/stack", "op": "Const", "input": ["^Func/StatefulPartitionedCall/gradient_boosted_trees_model_5/StatefulPartitionedCall/input_control_node/_4"], "attr": {"value": {"tensor": {"dtype": "DT_INT32", "tensorShape": {"dim": [{"size": "2"}]}}}, "dtype": {"type": "DT_INT32"}}}, {"name": "StatefulPartitionedCall/gradient_boosted_trees_model_5/StatefulPartitionedCall/PartitionedCall/strided_slice_9/stack_1", "op": "Const", "input": ["^Func/StatefulPartitionedCall/gradient_boosted_trees_model_5/StatefulPartitionedCall/input_control_node/_4"], "attr": {"dtype": {"type": "DT_INT32"}, "value": {"tensor": {"dtype": "DT_INT32", "tensorShape": {"dim": [{"size": "2"}]}}}}}, {"name": "StatefulPartitionedCall/gradient_boosted_trees_model_5/StatefulPartitionedCall/PartitionedCall/strided_slice_9/stack_2", "op": "Const", "input": ["^Func/StatefulPartitionedCall/gradient_boosted_trees_model_5/StatefulPartitionedCall/input_control_node/_4"], "attr": {"dtype": {"type": "DT_INT32"}, "value": {"tensor": {"dtype": "DT_INT32", "tensorShape": {"dim": [{"size": "2"}]}}}}}, {"name": "StatefulPartitionedCall/gradient_boosted_trees_model_5/StatefulPartitionedCall/Const", "op": "Const", "input": ["^Func/StatefulPartitionedCall/gradient_boosted_trees_model_5/StatefulPartitionedCall/input_control_node/_4"], "attr": {"value": {"tensor": {"dtype": "DT_FLOAT", "tensorShape": {"dim": [{}, {}]}}}, "dtype": {"type": "DT_FLOAT"}}}, {"name": "StatefulPartitionedCall/gradient_boosted_trees_model_5/StatefulPartitionedCall/Const_1", "op": "Const", "input": ["^Func/StatefulPartitionedCall/gradient_boosted_trees_model_5/StatefulPartitionedCall/input_control_node/_4"], "attr": {"value": {"tensor": {"dtype": "DT_INT32", "tensorShape": {"dim": [{}, {}]}}}, "dtype": {"type": "DT_INT32"}}}, {"name": "StatefulPartitionedCall/gradient_boosted_trees_model_5/StatefulPartitionedCall/RaggedConstant/values", "op": "Const", "input": ["^Func/StatefulPartitionedCall/gradient_boosted_trees_model_5/StatefulPartitionedCall/input_control_node/_4"], "attr": {"value": {"tensor": {"dtype": "DT_INT32", "tensorShape": {"dim": [{}]}}}, "dtype": {"type": "DT_INT32"}}}, {"name": "StatefulPartitionedCall/gradient_boosted_trees_model_5/StatefulPartitionedCall/RaggedConstant/Const", "op": "Const", "input": ["^Func/StatefulPartitionedCall/gradient_boosted_trees_model_5/StatefulPartitionedCall/input_control_node/_4"], "attr": {"dtype": {"type": "DT_INT64"}, "value": {"tensor": {"dtype": "DT_INT64", "tensorShape": {"dim": [{"size": "1"}]}}}}}, {"name": "StatefulPartitionedCall/gradient_boosted_trees_model_5/StatefulPartitionedCall/RaggedConstant/Const_1", "op": "Const", "input": ["^Func/StatefulPartitionedCall/gradient_boosted_trees_model_5/StatefulPartitionedCall/input_control_node/_4"], "attr": {"value": {"tensor": {"dtype": "DT_INT64", "tensorShape": {"dim": [{"size": "1"}]}}}, "dtype": {"type": "DT_INT64"}}}, {"name": "StatefulPartitionedCall/gradient_boosted_trees_model_5/StatefulPartitionedCall/PartitionedCall_1/strided_slice/stack", "op": "Const", "input": ["^Func/StatefulPartitionedCall/gradient_boosted_trees_model_5/StatefulPartitionedCall/input_control_node/_4"], "attr": {"dtype": {"type": "DT_INT32"}, "value": {"tensor": {"dtype": "DT_INT32", "tensorShape": {"dim": [{"size": "2"}]}}}}}, {"name": "StatefulPartitionedCall/gradient_boosted_trees_model_5/StatefulPartitionedCall/PartitionedCall_1/strided_slice/stack_1", "op": "Const", "input": ["^Func/StatefulPartitionedCall/gradient_boosted_trees_model_5/StatefulPartitionedCall/input_control_node/_4"], "attr": {"value": {"tensor": {"dtype": "DT_INT32", "tensorShape": {"dim": [{"size": "2"}]}}}, "dtype": {"type": "DT_INT32"}}}, {"name": "StatefulPartitionedCall/gradient_boosted_trees_model_5/StatefulPartitionedCall/PartitionedCall_1/strided_slice/stack_2", "op": "Const", "input": ["^Func/StatefulPartitionedCall/gradient_boosted_trees_model_5/StatefulPartitionedCall/input_control_node/_4"], "attr": {"value": {"tensor": {"dtype": "DT_INT32", "tensorShape": {"dim": [{"size": "2"}]}}}, "dtype": {"type": "DT_INT32"}}}, {"name": "StatefulPartitionedCall/gradient_boosted_trees_model_5/StatefulPartitionedCall/PartitionedCall/strided_slice", "op": "StridedSlice", "input": ["Func/StatefulPartitionedCall/gradient_boosted_trees_model_5/StatefulPartitionedCall/PartitionedCall/input/_10", "StatefulPartitionedCall/gradient_boosted_trees_model_5/StatefulPartitionedCall/PartitionedCall/strided_slice/stack", "StatefulPartitionedCall/gradient_boosted_trees_model_5/StatefulPartitionedCall/PartitionedCall/strided_slice/stack_1", "StatefulPartitionedCall/gradient_boosted_trees_model_5/StatefulPartitionedCall/PartitionedCall/strided_slice/stack_2"], "attr": {"new_axis_mask": {"i": "0"}, "begin_mask": {"i": "1"}, "Index": {"type": "DT_INT32"}, "ellipsis_mask": {"i": "0"}, "T": {"type": "DT_FLOAT"}, "end_mask": {"i": "1"}, "shrink_axis_mask": {"i": "2"}}}, {"name": "StatefulPartitionedCall/gradient_boosted_trees_model_5/StatefulPartitionedCall/PartitionedCall/strided_slice_1", "op": "StridedSlice", "input": ["Func/StatefulPartitionedCall/gradient_boosted_trees_model_5/StatefulPartitionedCall/PartitionedCall/input/_10", "StatefulPartitionedCall/gradient_boosted_trees_model_5/StatefulPartitionedCall/PartitionedCall/strided_slice_1/stack", "StatefulPartitionedCall/gradient_boosted_trees_model_5/StatefulPartitionedCall/PartitionedCall/strided_slice_1/stack_1", "StatefulPartitionedCall/gradient_boosted_trees_model_5/StatefulPartitionedCall/PartitionedCall/strided_slice_1/stack_2"], "attr": {"Index": {"type": "DT_INT32"}, "T": {"type": "DT_FLOAT"}, "new_axis_mask": {"i": "0"}, "ellipsis_mask": {"i": "0"}, "shrink_axis_mask": {"i": "2"}, "begin_mask": {"i": "1"}, "end_mask": {"i": "1"}}}, {"name": "StatefulPartitionedCall/gradient_boosted_trees_model_5/StatefulPartitionedCall/PartitionedCall/strided_slice_10", "op": "StridedSlice", "input": ["Func/StatefulPartitionedCall/gradient_boosted_trees_model_5/StatefulPartitionedCall/PartitionedCall/input/_10", "StatefulPartitionedCall/gradient_boosted_trees_model_5/StatefulPartitionedCall/PartitionedCall/strided_slice_10/stack", "StatefulPartitionedCall/gradient_boosted_trees_model_5/StatefulPartitionedCall/PartitionedCall/strided_slice_10/stack_1", "StatefulPartitionedCall/gradient_boosted_trees_model_5/StatefulPartitionedCall/PartitionedCall/strided_slice_10/stack_2"], "attr": {"shrink_axis_mask": {"i": "2"}, "end_mask": {"i": "1"}, "Index": {"type": "DT_INT32"}, "ellipsis_mask": {"i": "0"}, "T": {"type": "DT_FLOAT"}, "new_axis_mask": {"i": "0"}, "begin_mask": {"i": "1"}}}, {"name": "StatefulPartitionedCall/gradient_boosted_trees_model_5/StatefulPartitionedCall/PartitionedCall/strided_slice_11", "op": "StridedSlice", "input": ["Func/StatefulPartitionedCall/gradient_boosted_trees_model_5/StatefulPartitionedCall/PartitionedCall/input/_10", "StatefulPartitionedCall/gradient_boosted_trees_model_5/StatefulPartitionedCall/PartitionedCall/strided_slice_11/stack", "StatefulPartitionedCall/gradient_boosted_trees_model_5/StatefulPartitionedCall/PartitionedCall/strided_slice_11/stack_1", "StatefulPartitionedCall/gradient_boosted_trees_model_5/StatefulPartitionedCall/PartitionedCall/strided_slice_11/stack_2"], "attr": {"new_axis_mask": {"i": "0"}, "Index": {"type": "DT_INT32"}, "end_mask": {"i": "1"}, "begin_mask": {"i": "1"}, "ellipsis_mask": {"i": "0"}, "shrink_axis_mask": {"i": "2"}, "T": {"type": "DT_FLOAT"}}}, {"name": "StatefulPartitionedCall/gradient_boosted_trees_model_5/StatefulPartitionedCall/PartitionedCall/strided_slice_12", "op": "StridedSlice", "input": ["Func/StatefulPartitionedCall/gradient_boosted_trees_model_5/StatefulPartitionedCall/PartitionedCall/input/_10", "StatefulPartitionedCall/gradient_boosted_trees_model_5/StatefulPartitionedCall/PartitionedCall/strided_slice_12/stack", "StatefulPartitionedCall/gradient_boosted_trees_model_5/StatefulPartitionedCall/PartitionedCall/strided_slice_12/stack_1", "StatefulPartitionedCall/gradient_boosted_trees_model_5/StatefulPartitionedCall/PartitionedCall/strided_slice_12/stack_2"], "attr": {"begin_mask": {"i": "1"}, "shrink_axis_mask": {"i": "2"}, "Index": {"type": "DT_INT32"}, "ellipsis_mask": {"i": "0"}, "end_mask": {"i": "1"}, "T": {"type": "DT_FLOAT"}, "new_axis_mask": {"i": "0"}}}, {"name": "StatefulPartitionedCall/gradient_boosted_trees_model_5/StatefulPartitionedCall/PartitionedCall/strided_slice_13", "op": "StridedSlice", "input": ["Func/StatefulPartitionedCall/gradient_boosted_trees_model_5/StatefulPartitionedCall/PartitionedCall/input/_10", "StatefulPartitionedCall/gradient_boosted_trees_model_5/StatefulPartitionedCall/PartitionedCall/strided_slice_13/stack", "StatefulPartitionedCall/gradient_boosted_trees_model_5/StatefulPartitionedCall/PartitionedCall/strided_slice_13/stack_1", "StatefulPartitionedCall/gradient_boosted_trees_model_5/StatefulPartitionedCall/PartitionedCall/strided_slice_13/stack_2"], "attr": {"T": {"type": "DT_FLOAT"}, "end_mask": {"i": "1"}, "new_axis_mask": {"i": "0"}, "begin_mask": {"i": "1"}, "ellipsis_mask": {"i": "0"}, "Index": {"type": "DT_INT32"}, "shrink_axis_mask": {"i": "2"}}}, {"name": "StatefulPartitionedCall/gradient_boosted_trees_model_5/StatefulPartitionedCall/PartitionedCall/strided_slice_14", "op": "StridedSlice", "input": ["Func/StatefulPartitionedCall/gradient_boosted_trees_model_5/StatefulPartitionedCall/PartitionedCall/input/_10", "StatefulPartitionedCall/gradient_boosted_trees_model_5/StatefulPartitionedCall/PartitionedCall/strided_slice_14/stack", "StatefulPartitionedCall/gradient_boosted_trees_model_5/StatefulPartitionedCall/PartitionedCall/strided_slice_14/stack_1", "StatefulPartitionedCall/gradient_boosted_trees_model_5/StatefulPartitionedCall/PartitionedCall/strided_slice_14/stack_2"], "attr": {"shrink_axis_mask": {"i": "2"}, "T": {"type": "DT_FLOAT"}, "end_mask": {"i": "1"}, "new_axis_mask": {"i": "0"}, "begin_mask": {"i": "1"}, "Index": {"type": "DT_INT32"}, "ellipsis_mask": {"i": "0"}}}, {"name": "StatefulPartitionedCall/gradient_boosted_trees_model_5/StatefulPartitionedCall/PartitionedCall/strided_slice_15", "op": "StridedSlice", "input": ["Func/StatefulPartitionedCall/gradient_boosted_trees_model_5/StatefulPartitionedCall/PartitionedCall/input/_10", "StatefulPartitionedCall/gradient_boosted_trees_model_5/StatefulPartitionedCall/PartitionedCall/strided_slice_15/stack", "StatefulPartitionedCall/gradient_boosted_trees_model_5/StatefulPartitionedCall/PartitionedCall/strided_slice_15/stack_1", "StatefulPartitionedCall/gradient_boosted_trees_model_5/StatefulPartitionedCall/PartitionedCall/strided_slice_15/stack_2"], "attr": {"T": {"type": "DT_FLOAT"}, "ellipsis_mask": {"i": "0"}, "new_axis_mask": {"i": "0"}, "end_mask": {"i": "1"}, "shrink_axis_mask": {"i": "2"}, "begin_mask": {"i": "1"}, "Index": {"type": "DT_INT32"}}}, {"name": "StatefulPartitionedCall/gradient_boosted_trees_model_5/StatefulPartitionedCall/PartitionedCall/strided_slice_16", "op": "StridedSlice", "input": ["Func/StatefulPartitionedCall/gradient_boosted_trees_model_5/StatefulPartitionedCall/PartitionedCall/input/_10", "StatefulPartitionedCall/gradient_boosted_trees_model_5/StatefulPartitionedCall/PartitionedCall/strided_slice_16/stack", "StatefulPartitionedCall/gradient_boosted_trees_model_5/StatefulPartitionedCall/PartitionedCall/strided_slice_16/stack_1", "StatefulPartitionedCall/gradient_boosted_trees_model_5/StatefulPartitionedCall/PartitionedCall/strided_slice_16/stack_2"], "attr": {"T": {"type": "DT_FLOAT"}, "Index": {"type": "DT_INT32"}, "new_axis_mask": {"i": "0"}, "ellipsis_mask": {"i": "0"}, "end_mask": {"i": "1"}, "begin_mask": {"i": "1"}, "shrink_axis_mask": {"i": "2"}}}, {"name": "StatefulPartitionedCall/gradient_boosted_trees_model_5/StatefulPartitionedCall/PartitionedCall/strided_slice_17", "op": "StridedSlice", "input": ["Func/StatefulPartitionedCall/gradient_boosted_trees_model_5/StatefulPartitionedCall/PartitionedCall/input/_10", "StatefulPartitionedCall/gradient_boosted_trees_model_5/StatefulPartitionedCall/PartitionedCall/strided_slice_17/stack", "StatefulPartitionedCall/gradient_boosted_trees_model_5/StatefulPartitionedCall/PartitionedCall/strided_slice_17/stack_1", "StatefulPartitionedCall/gradient_boosted_trees_model_5/StatefulPartitionedCall/PartitionedCall/strided_slice_17/stack_2"], "attr": {"begin_mask": {"i": "1"}, "ellipsis_mask": {"i": "0"}, "T": {"type": "DT_FLOAT"}, "Index": {"type": "DT_INT32"}, "new_axis_mask": {"i": "0"}, "shrink_axis_mask": {"i": "2"}, "end_mask": {"i": "1"}}}, {"name": "StatefulPartitionedCall/gradient_boosted_trees_model_5/StatefulPartitionedCall/PartitionedCall/strided_slice_18", "op": "StridedSlice", "input": ["Func/StatefulPartitionedCall/gradient_boosted_trees_model_5/StatefulPartitionedCall/PartitionedCall/input/_10", "StatefulPartitionedCall/gradient_boosted_trees_model_5/StatefulPartitionedCall/PartitionedCall/strided_slice_18/stack", "StatefulPartitionedCall/gradient_boosted_trees_model_5/StatefulPartitionedCall/PartitionedCall/strided_slice_18/stack_1", "StatefulPartitionedCall/gradient_boosted_trees_model_5/StatefulPartitionedCall/PartitionedCall/strided_slice_18/stack_2"], "attr": {"end_mask": {"i": "1"}, "T": {"type": "DT_FLOAT"}, "new_axis_mask": {"i": "0"}, "ellipsis_mask": {"i": "0"}, "Index": {"type": "DT_INT32"}, "shrink_axis_mask": {"i": "2"}, "begin_mask": {"i": "1"}}}, {"name": "StatefulPartitionedCall/gradient_boosted_trees_model_5/StatefulPartitionedCall/PartitionedCall/strided_slice_19", "op": "StridedSlice", "input": ["Func/StatefulPartitionedCall/gradient_boosted_trees_model_5/StatefulPartitionedCall/PartitionedCall/input/_10", "StatefulPartitionedCall/gradient_boosted_trees_model_5/StatefulPartitionedCall/PartitionedCall/strided_slice_19/stack", "StatefulPartitionedCall/gradient_boosted_trees_model_5/StatefulPartitionedCall/PartitionedCall/strided_slice_19/stack_1", "StatefulPartitionedCall/gradient_boosted_trees_model_5/StatefulPartitionedCall/PartitionedCall/strided_slice_19/stack_2"], "attr": {"begin_mask": {"i": "1"}, "T": {"type": "DT_FLOAT"}, "shrink_axis_mask": {"i": "2"}, "Index": {"type": "DT_INT32"}, "ellipsis_mask": {"i": "0"}, "new_axis_mask": {"i": "0"}, "end_mask": {"i": "1"}}}, {"name": "StatefulPartitionedCall/gradient_boosted_trees_model_5/StatefulPartitionedCall/PartitionedCall/strided_slice_2", "op": "StridedSlice", "input": ["Func/StatefulPartitionedCall/gradient_boosted_trees_model_5/StatefulPartitionedCall/PartitionedCall/input/_10", "StatefulPartitionedCall/gradient_boosted_trees_model_5/StatefulPartitionedCall/PartitionedCall/strided_slice_2/stack", "StatefulPartitionedCall/gradient_boosted_trees_model_5/StatefulPartitionedCall/PartitionedCall/strided_slice_2/stack_1", "StatefulPartitionedCall/gradient_boosted_trees_model_5/StatefulPartitionedCall/PartitionedCall/strided_slice_2/stack_2"], "attr": {"Index": {"type": "DT_INT32"}, "shrink_axis_mask": {"i": "2"}, "begin_mask": {"i": "1"}, "end_mask": {"i": "1"}, "new_axis_mask": {"i": "0"}, "ellipsis_mask": {"i": "0"}, "T": {"type": "DT_FLOAT"}}}, {"name": "StatefulPartitionedCall/gradient_boosted_trees_model_5/StatefulPartitionedCall/PartitionedCall/strided_slice_20", "op": "StridedSlice", "input": ["Func/StatefulPartitionedCall/gradient_boosted_trees_model_5/StatefulPartitionedCall/PartitionedCall/input/_10", "StatefulPartitionedCall/gradient_boosted_trees_model_5/StatefulPartitionedCall/PartitionedCall/strided_slice_20/stack", "StatefulPartitionedCall/gradient_boosted_trees_model_5/StatefulPartitionedCall/PartitionedCall/strided_slice_20/stack_1", "StatefulPartitionedCall/gradient_boosted_trees_model_5/StatefulPartitionedCall/PartitionedCall/strided_slice_20/stack_2"], "attr": {"end_mask": {"i": "1"}, "new_axis_mask": {"i": "0"}, "Index": {"type": "DT_INT32"}, "T": {"type": "DT_FLOAT"}, "ellipsis_mask": {"i": "0"}, "begin_mask": {"i": "1"}, "shrink_axis_mask": {"i": "2"}}}, {"name": "StatefulPartitionedCall/gradient_boosted_trees_model_5/StatefulPartitionedCall/PartitionedCall/strided_slice_21", "op": "StridedSlice", "input": ["Func/StatefulPartitionedCall/gradient_boosted_trees_model_5/StatefulPartitionedCall/PartitionedCall/input/_10", "StatefulPartitionedCall/gradient_boosted_trees_model_5/StatefulPartitionedCall/PartitionedCall/strided_slice_21/stack", "StatefulPartitionedCall/gradient_boosted_trees_model_5/StatefulPartitionedCall/PartitionedCall/strided_slice_21/stack_1", "StatefulPartitionedCall/gradient_boosted_trees_model_5/StatefulPartitionedCall/PartitionedCall/strided_slice_21/stack_2"], "attr": {"begin_mask": {"i": "1"}, "ellipsis_mask": {"i": "0"}, "Index": {"type": "DT_INT32"}, "T": {"type": "DT_FLOAT"}, "end_mask": {"i": "1"}, "shrink_axis_mask": {"i": "2"}, "new_axis_mask": {"i": "0"}}}, {"name": "StatefulPartitionedCall/gradient_boosted_trees_model_5/StatefulPartitionedCall/PartitionedCall/strided_slice_22", "op": "StridedSlice", "input": ["Func/StatefulPartitionedCall/gradient_boosted_trees_model_5/StatefulPartitionedCall/PartitionedCall/input/_10", "StatefulPartitionedCall/gradient_boosted_trees_model_5/StatefulPartitionedCall/PartitionedCall/strided_slice_22/stack", "StatefulPartitionedCall/gradient_boosted_trees_model_5/StatefulPartitionedCall/PartitionedCall/strided_slice_22/stack_1", "StatefulPartitionedCall/gradient_boosted_trees_model_5/StatefulPartitionedCall/PartitionedCall/strided_slice_22/stack_2"], "attr": {"end_mask": {"i": "1"}, "shrink_axis_mask": {"i": "2"}, "ellipsis_mask": {"i": "0"}, "Index": {"type": "DT_INT32"}, "begin_mask": {"i": "1"}, "new_axis_mask": {"i": "0"}, "T": {"type": "DT_FLOAT"}}}, {"name": "StatefulPartitionedCall/gradient_boosted_trees_model_5/StatefulPartitionedCall/PartitionedCall/strided_slice_23", "op": "StridedSlice", "input": ["Func/StatefulPartitionedCall/gradient_boosted_trees_model_5/StatefulPartitionedCall/PartitionedCall/input/_10", "StatefulPartitionedCall/gradient_boosted_trees_model_5/StatefulPartitionedCall/PartitionedCall/strided_slice_23/stack", "StatefulPartitionedCall/gradient_boosted_trees_model_5/StatefulPartitionedCall/PartitionedCall/strided_slice_23/stack_1", "StatefulPartitionedCall/gradient_boosted_trees_model_5/StatefulPartitionedCall/PartitionedCall/strided_slice_23/stack_2"], "attr": {"shrink_axis_mask": {"i": "2"}, "T": {"type": "DT_FLOAT"}, "begin_mask": {"i": "1"}, "end_mask": {"i": "1"}, "Index": {"type": "DT_INT32"}, "new_axis_mask": {"i": "0"}, "ellipsis_mask": {"i": "0"}}}, {"name": "StatefulPartitionedCall/gradient_boosted_trees_model_5/StatefulPartitionedCall/PartitionedCall/strided_slice_3", "op": "StridedSlice", "input": ["Func/StatefulPartitionedCall/gradient_boosted_trees_model_5/StatefulPartitionedCall/PartitionedCall/input/_10", "StatefulPartitionedCall/gradient_boosted_trees_model_5/StatefulPartitionedCall/PartitionedCall/strided_slice_3/stack", "StatefulPartitionedCall/gradient_boosted_trees_model_5/StatefulPartitionedCall/PartitionedCall/strided_slice_3/stack_1", "StatefulPartitionedCall/gradient_boosted_trees_model_5/StatefulPartitionedCall/PartitionedCall/strided_slice_3/stack_2"], "attr": {"begin_mask": {"i": "1"}, "ellipsis_mask": {"i": "0"}, "Index": {"type": "DT_INT32"}, "T": {"type": "DT_FLOAT"}, "end_mask": {"i": "1"}, "shrink_axis_mask": {"i": "2"}, "new_axis_mask": {"i": "0"}}}, {"name": "StatefulPartitionedCall/gradient_boosted_trees_model_5/StatefulPartitionedCall/PartitionedCall/strided_slice_4", "op": "StridedSlice", "input": ["Func/StatefulPartitionedCall/gradient_boosted_trees_model_5/StatefulPartitionedCall/PartitionedCall/input/_10", "StatefulPartitionedCall/gradient_boosted_trees_model_5/StatefulPartitionedCall/PartitionedCall/strided_slice_4/stack", "StatefulPartitionedCall/gradient_boosted_trees_model_5/StatefulPartitionedCall/PartitionedCall/strided_slice_4/stack_1", "StatefulPartitionedCall/gradient_boosted_trees_model_5/StatefulPartitionedCall/PartitionedCall/strided_slice_4/stack_2"], "attr": {"T": {"type": "DT_FLOAT"}, "shrink_axis_mask": {"i": "2"}, "ellipsis_mask": {"i": "0"}, "begin_mask": {"i": "1"}, "new_axis_mask": {"i": "0"}, "end_mask": {"i": "1"}, "Index": {"type": "DT_INT32"}}}, {"name": "StatefulPartitionedCall/gradient_boosted_trees_model_5/StatefulPartitionedCall/PartitionedCall/strided_slice_5", "op": "StridedSlice", "input": ["Func/StatefulPartitionedCall/gradient_boosted_trees_model_5/StatefulPartitionedCall/PartitionedCall/input/_10", "StatefulPartitionedCall/gradient_boosted_trees_model_5/StatefulPartitionedCall/PartitionedCall/strided_slice_5/stack", "StatefulPartitionedCall/gradient_boosted_trees_model_5/StatefulPartitionedCall/PartitionedCall/strided_slice_5/stack_1", "StatefulPartitionedCall/gradient_boosted_trees_model_5/StatefulPartitionedCall/PartitionedCall/strided_slice_5/stack_2"], "attr": {"ellipsis_mask": {"i": "0"}, "new_axis_mask": {"i": "0"}, "Index": {"type": "DT_INT32"}, "shrink_axis_mask": {"i": "2"}, "T": {"type": "DT_FLOAT"}, "begin_mask": {"i": "1"}, "end_mask": {"i": "1"}}}, {"name": "StatefulPartitionedCall/gradient_boosted_trees_model_5/StatefulPartitionedCall/PartitionedCall/strided_slice_6", "op": "StridedSlice", "input": ["Func/StatefulPartitionedCall/gradient_boosted_trees_model_5/StatefulPartitionedCall/PartitionedCall/input/_10", "StatefulPartitionedCall/gradient_boosted_trees_model_5/StatefulPartitionedCall/PartitionedCall/strided_slice_6/stack", "StatefulPartitionedCall/gradient_boosted_trees_model_5/StatefulPartitionedCall/PartitionedCall/strided_slice_6/stack_1", "StatefulPartitionedCall/gradient_boosted_trees_model_5/StatefulPartitionedCall/PartitionedCall/strided_slice_6/stack_2"], "attr": {"shrink_axis_mask": {"i": "2"}, "end_mask": {"i": "1"}, "Index": {"type": "DT_INT32"}, "new_axis_mask": {"i": "0"}, "ellipsis_mask": {"i": "0"}, "T": {"type": "DT_FLOAT"}, "begin_mask": {"i": "1"}}}, {"name": "StatefulPartitionedCall/gradient_boosted_trees_model_5/StatefulPartitionedCall/PartitionedCall/strided_slice_7", "op": "StridedSlice", "input": ["Func/StatefulPartitionedCall/gradient_boosted_trees_model_5/StatefulPartitionedCall/PartitionedCall/input/_10", "StatefulPartitionedCall/gradient_boosted_trees_model_5/StatefulPartitionedCall/PartitionedCall/strided_slice_7/stack", "StatefulPartitionedCall/gradient_boosted_trees_model_5/StatefulPartitionedCall/PartitionedCall/strided_slice_7/stack_1", "StatefulPartitionedCall/gradient_boosted_trees_model_5/StatefulPartitionedCall/PartitionedCall/strided_slice_7/stack_2"], "attr": {"T": {"type": "DT_FLOAT"}, "shrink_axis_mask": {"i": "2"}, "begin_mask": {"i": "1"}, "ellipsis_mask": {"i": "0"}, "Index": {"type": "DT_INT32"}, "new_axis_mask": {"i": "0"}, "end_mask": {"i": "1"}}}, {"name": "StatefulPartitionedCall/gradient_boosted_trees_model_5/StatefulPartitionedCall/PartitionedCall/strided_slice_8", "op": "StridedSlice", "input": ["Func/StatefulPartitionedCall/gradient_boosted_trees_model_5/StatefulPartitionedCall/PartitionedCall/input/_10", "StatefulPartitionedCall/gradient_boosted_trees_model_5/StatefulPartitionedCall/PartitionedCall/strided_slice_8/stack", "StatefulPartitionedCall/gradient_boosted_trees_model_5/StatefulPartitionedCall/PartitionedCall/strided_slice_8/stack_1", "StatefulPartitionedCall/gradient_boosted_trees_model_5/StatefulPartitionedCall/PartitionedCall/strided_slice_8/stack_2"], "attr": {"ellipsis_mask": {"i": "0"}, "Index": {"type": "DT_INT32"}, "end_mask": {"i": "1"}, "begin_mask": {"i": "1"}, "shrink_axis_mask": {"i": "2"}, "T": {"type": "DT_FLOAT"}, "new_axis_mask": {"i": "0"}}}, {"name": "StatefulPartitionedCall/gradient_boosted_trees_model_5/StatefulPartitionedCall/PartitionedCall/strided_slice_9", "op": "StridedSlice", "input": ["Func/StatefulPartitionedCall/gradient_boosted_trees_model_5/StatefulPartitionedCall/PartitionedCall/input/_10", "StatefulPartitionedCall/gradient_boosted_trees_model_5/StatefulPartitionedCall/PartitionedCall/strided_slice_9/stack", "StatefulPartitionedCall/gradient_boosted_trees_model_5/StatefulPartitionedCall/PartitionedCall/strided_slice_9/stack_1", "StatefulPartitionedCall/gradient_boosted_trees_model_5/StatefulPartitionedCall/PartitionedCall/strided_slice_9/stack_2"], "attr": {"shrink_axis_mask": {"i": "2"}, "ellipsis_mask": {"i": "0"}, "T": {"type": "DT_FLOAT"}, "new_axis_mask": {"i": "0"}, "Index": {"type": "DT_INT32"}, "end_mask": {"i": "1"}, "begin_mask": {"i": "1"}}}, {"name": "StatefulPartitionedCall/gradient_boosted_trees_model_5/StatefulPartitionedCall/stack", "op": "Pack", "input": ["StatefulPartitionedCall/gradient_boosted_trees_model_5/StatefulPartitionedCall/PartitionedCall/strided_slice", "StatefulPartitionedCall/gradient_boosted_trees_model_5/StatefulPartitionedCall/PartitionedCall/strided_slice_1", "StatefulPartitionedCall/gradient_boosted_trees_model_5/StatefulPartitionedCall/PartitionedCall/strided_slice_10", "StatefulPartitionedCall/gradient_boosted_trees_model_5/StatefulPartitionedCall/PartitionedCall/strided_slice_11", "StatefulPartitionedCall/gradient_boosted_trees_model_5/StatefulPartitionedCall/PartitionedCall/strided_slice_12", "StatefulPartitionedCall/gradient_boosted_trees_model_5/StatefulPartitionedCall/PartitionedCall/strided_slice_13", "StatefulPartitionedCall/gradient_boosted_trees_model_5/StatefulPartitionedCall/PartitionedCall/strided_slice_14", "StatefulPartitionedCall/gradient_boosted_trees_model_5/StatefulPartitionedCall/PartitionedCall/strided_slice_15", "StatefulPartitionedCall/gradient_boosted_trees_model_5/StatefulPartitionedCall/PartitionedCall/strided_slice_16", "StatefulPartitionedCall/gradient_boosted_trees_model_5/StatefulPartitionedCall/PartitionedCall/strided_slice_17", "StatefulPartitionedCall/gradient_boosted_trees_model_5/StatefulPartitionedCall/PartitionedCall/strided_slice_18", "StatefulPartitionedCall/gradient_boosted_trees_model_5/StatefulPartitionedCall/PartitionedCall/strided_slice_19", "StatefulPartitionedCall/gradient_boosted_trees_model_5/StatefulPartitionedCall/PartitionedCall/strided_slice_2", "StatefulPartitionedCall/gradient_boosted_trees_model_5/StatefulPartitionedCall/PartitionedCall/strided_slice_20", "StatefulPartitionedCall/gradient_boosted_trees_model_5/StatefulPartitionedCall/PartitionedCall/strided_slice_21", "StatefulPartitionedCall/gradient_boosted_trees_model_5/StatefulPartitionedCall/PartitionedCall/strided_slice_22", "StatefulPartitionedCall/gradient_boosted_trees_model_5/StatefulPartitionedCall/PartitionedCall/strided_slice_23", "StatefulPartitionedCall/gradient_boosted_trees_model_5/StatefulPartitionedCall/PartitionedCall/strided_slice_3", "StatefulPartitionedCall/gradient_boosted_trees_model_5/StatefulPartitionedCall/PartitionedCall/strided_slice_4", "StatefulPartitionedCall/gradient_boosted_trees_model_5/StatefulPartitionedCall/PartitionedCall/strided_slice_5", "StatefulPartitionedCall/gradient_boosted_trees_model_5/StatefulPartitionedCall/PartitionedCall/strided_slice_6", "StatefulPartitionedCall/gradient_boosted_trees_model_5/StatefulPartitionedCall/PartitionedCall/strided_slice_7", "StatefulPartitionedCall/gradient_boosted_trees_model_5/StatefulPartitionedCall/PartitionedCall/strided_slice_8", "StatefulPartitionedCall/gradient_boosted_trees_model_5/StatefulPartitionedCall/PartitionedCall/strided_slice_9"], "attr": {"T": {"type": "DT_FLOAT"}, "N": {"i": "24"}, "axis": {"i": "1"}}}, {"name": "StatefulPartitionedCall/gradient_boosted_trees_model_5/StatefulPartitionedCall/inference_op", "op": "SimpleMLInferenceOpWithHandle", "input": ["StatefulPartitionedCall/gradient_boosted_trees_model_5/StatefulPartitionedCall/stack", "StatefulPartitionedCall/gradient_boosted_trees_model_5/StatefulPartitionedCall/Const", "StatefulPartitionedCall/gradient_boosted_trees_model_5/StatefulPartitionedCall/Const_1", "StatefulPartitionedCall/gradient_boosted_trees_model_5/StatefulPartitionedCall/RaggedConstant/values", "StatefulPartitionedCall/gradient_boosted_trees_model_5/StatefulPartitionedCall/RaggedConstant/Const", "StatefulPartitionedCall/gradient_boosted_trees_model_5/StatefulPartitionedCall/RaggedConstant/Const_1", "unknown"], "attr": {"_has_manual_control_dependencies": {"b": true}, "dense_output_dim": {"i": "2"}}}, {"name": "StatefulPartitionedCall/gradient_boosted_trees_model_5/StatefulPartitionedCall/PartitionedCall_1/strided_slice", "op": "StridedSlice", "input": ["StatefulPartitionedCall/gradient_boosted_trees_model_5/StatefulPartitionedCall/inference_op", "StatefulPartitionedCall/gradient_boosted_trees_model_5/StatefulPartitionedCall/PartitionedCall_1/strided_slice/stack", "StatefulPartitionedCall/gradient_boosted_trees_model_5/StatefulPartitionedCall/PartitionedCall_1/strided_slice/stack_1", "StatefulPartitionedCall/gradient_boosted_trees_model_5/StatefulPartitionedCall/PartitionedCall_1/strided_slice/stack_2"], "attr": {"T": {"type": "DT_FLOAT"}, "shrink_axis_mask": {"i": "0"}, "new_axis_mask": {"i": "0"}, "begin_mask": {"i": "1"}, "ellipsis_mask": {"i": "0"}, "Index": {"type": "DT_INT32"}, "end_mask": {"i": "1"}}}, {"name": "Identity", "op": "Identity", "input": ["StatefulPartitionedCall/gradient_boosted_trees_model_5/StatefulPartitionedCall/PartitionedCall_1/strided_slice"], "attr": {"T": {"type": "DT_FLOAT"}}}], "library": {}, "versions": {"producer": 1395}}, "modelInitializer": {"node": [{"name": "Func/StatefulPartitionedCall/input_control_node/_0", "op": "NoOp", "attr": {"_has_manual_control_dependencies": {"b": true}}}, {"name": "1078", "op": "Const", "attr": {"dtype": {"type": "DT_STRING"}, "_has_manual_control_dependencies": {"b": true}, "value": {"tensor": {"dtype": "DT_STRING", "tensorShape": {}}}}}, {"name": "Func/StatefulPartitionedCall/StatefulPartitionedCall/input_control_node/_8", "op": "NoOp", "input": ["^Func/StatefulPartitionedCall/input_control_node/_0"], "attr": {"_has_manual_control_dependencies": {"b": true}}}, {"name": "StatefulPartitionedCall/StatefulPartitionedCall/SimpleMLCreateModelResource", "op": "SimpleMLCreateModelResource", "input": ["^Func/StatefulPartitionedCall/StatefulPartitionedCall/input_control_node/_8"], "attr": {"container": {"s": ""}, "_has_manual_control_dependencies": {"b": true}, "shared_name": {"s": "c2ltcGxlX21sX21vZGVsXzUyMTUwODdkLTUxNDItNGI0ZS05YjBiLWRkMjE0MmJmZTU2Ml9sb2FkXzE="}}}, {"name": "Func/StatefulPartitionedCall/StatefulPartitionedCall/output_control_node/_10", "op": "NoOp", "input": ["^StatefulPartitionedCall/StatefulPartitionedCall/SimpleMLCreateModelResource"], "attr": {"_has_manual_control_dependencies": {"b": true}}}, {"name": "Func/StatefulPartitionedCall/output_control_node/_2", "op": "NoOp", "input": ["^Func/StatefulPartitionedCall/StatefulPartitionedCall/output_control_node/_10"], "attr": {"_has_manual_control_dependencies": {"b": true}}}, {"name": "StatefulPartitionedCall/StatefulPartitionedCall/NoOp", "op": "NoOp", "input": ["^StatefulPartitionedCall/StatefulPartitionedCall/SimpleMLCreateModelResource"], "attr": {"_has_manual_control_dependencies": {"b": true}, "_acd_function_control_output": {"b": true}}}, {"name": "StatefulPartitionedCall/StatefulPartitionedCall/Identity", "op": "Identity", "input": ["StatefulPartitionedCall/StatefulPartitionedCall/SimpleMLCreateModelResource", "^StatefulPartitionedCall/StatefulPartitionedCall/NoOp"], "attr": {"T": {"type": "DT_RESOURCE"}}}, {"name": "Func/StatefulPartitionedCall/StatefulPartitionedCall/output/_9", "op": "Identity", "input": ["StatefulPartitionedCall/StatefulPartitionedCall/Identity"], "attr": {"T": {"type": "DT_RESOURCE"}}}, {"name": "StatefulPartitionedCall/NoOp", "op": "NoOp", "input": ["^Func/StatefulPartitionedCall/StatefulPartitionedCall/output_control_node/_10"], "attr": {"_acd_function_control_output": {"b": true}, "_has_manual_control_dependencies": {"b": true}}}, {"name": "StatefulPartitionedCall/Identity", "op": "Identity", "input": ["Func/StatefulPartitionedCall/StatefulPartitionedCall/output/_9", "^StatefulPartitionedCall/NoOp"], "attr": {"T": {"type": "DT_RESOURCE"}}}, {"name": "Func/StatefulPartitionedCall/output/_1", "op": "Identity", "input": ["StatefulPartitionedCall/Identity"], "attr": {"T": {"type": "DT_RESOURCE"}, "_has_manual_control_dependencies": {"b": true}}}, {"name": "Func/StatefulPartitionedCall_1/input_control_node/_3", "op": "NoOp", "input": ["^1078", "^Func/StatefulPartitionedCall/output/_1"], "attr": {"_has_manual_control_dependencies": {"b": true}}}, {"name": "Func/StatefulPartitionedCall_1/input/_5", "op": "Identity", "input": ["Func/StatefulPartitionedCall/output/_1", "^Func/StatefulPartitionedCall_1/input_control_node/_3"], "attr": {"T": {"type": "DT_RESOURCE"}}}, {"name": "Func/StatefulPartitionedCall_1/StatefulPartitionedCall/input_control_node/_11", "op": "NoOp", "input": ["^Func/StatefulPartitionedCall_1/input_control_node/_3"], "attr": {"_has_manual_control_dependencies": {"b": true}}}, {"name": "Func/StatefulPartitionedCall_1/StatefulPartitionedCall/input/_13", "op": "Identity", "input": ["Func/StatefulPartitionedCall_1/input/_5", "^Func/StatefulPartitionedCall_1/StatefulPartitionedCall/input_control_node/_11"], "attr": {"T": {"type": "DT_RESOURCE"}}}, {"name": "Func/StatefulPartitionedCall_1/input/_4", "op": "Identity", "input": ["1078", "^Func/StatefulPartitionedCall_1/input_control_node/_3"], "attr": {"T": {"type": "DT_STRING"}}}, {"name": "Func/StatefulPartitionedCall_1/StatefulPartitionedCall/input/_12", "op": "Identity", "input": ["Func/StatefulPartitionedCall_1/input/_4", "^Func/StatefulPartitionedCall_1/StatefulPartitionedCall/input_control_node/_11"], "attr": {"T": {"type": "DT_STRING"}}}, {"name": "StatefulPartitionedCall_1/StatefulPartitionedCall/StaticRegexReplace", "op": "StaticRegexReplace", "input": ["Func/StatefulPartitionedCall_1/StatefulPartitionedCall/input/_12"], "attr": {"pattern": {"s": "ZWI1MWNhN2RlNDkzNGIzM2RvbmU="}, "replace_global": {"b": true}, "rewrite": {"s": ""}}}, {"name": "StatefulPartitionedCall_1/StatefulPartitionedCall/simple_ml/SimpleMLLoadModelFromPathWithHandle", "op": "SimpleMLLoadModelFromPathWithHandle", "input": ["Func/StatefulPartitionedCall_1/StatefulPartitionedCall/input/_13", "StatefulPartitionedCall_1/StatefulPartitionedCall/StaticRegexReplace"], "attr": {"output_types": {"list": {}}, "_has_manual_control_dependencies": {"b": true}, "allow_slow_inference": {"b": true}, "file_prefix": {"s": "ZWI1MWNhN2RlNDkzNGIzMw=="}}}, {"name": "Func/StatefulPartitionedCall_1/StatefulPartitionedCall/output_control_node/_15", "op": "NoOp", "input": ["^StatefulPartitionedCall_1/StatefulPartitionedCall/simple_ml/SimpleMLLoadModelFromPathWithHandle"], "attr": {"_has_manual_control_dependencies": {"b": true}}}, {"name": "Func/StatefulPartitionedCall_1/output_control_node/_7", "op": "NoOp", "input": ["^Func/StatefulPartitionedCall_1/StatefulPartitionedCall/output_control_node/_15"], "attr": {"_has_manual_control_dependencies": {"b": true}}}, {"name": "NoOp", "op": "NoOp", "input": ["^Func/StatefulPartitionedCall/output_control_node/_2", "^Func/StatefulPartitionedCall_1/output_control_node/_7"], "attr": {"_has_manual_control_dependencies": {"b": true}, "_acd_function_control_output": {"b": true}}}, {"name": "Identity", "op": "Identity", "input": ["Func/StatefulPartitionedCall/output/_1", "^Func/StatefulPartitionedCall_1/output_control_node/_7", "^NoOp"], "attr": {"T": {"type": "DT_RESOURCE"}}}], "versions": {"producer": 1395}}, "initializerSignature": {"outputs": {"Identity:0": {"name": "Identity:0", "dtype": "DT_RESOURCE", "tensorShape": {}, "resourceId": 679}}}, "weightsManifest": [{"paths": ["group1-shard1of1.bin"], "weights": [{"name": "StatefulPartitionedCall/gradient_boosted_trees_model_5/StatefulPartitionedCall/PartitionedCall/strided_slice/stack", "shape": [2], "dtype": "int32"}, {"name": "StatefulPartitionedCall/gradient_boosted_trees_model_5/StatefulPartitionedCall/PartitionedCall/strided_slice/stack_1", "shape": [2], "dtype": "int32"}, {"name": "StatefulPartitionedCall/gradient_boosted_trees_model_5/StatefulPartitionedCall/PartitionedCall/strided_slice/stack_2", "shape": [2], "dtype": "int32"}, {"name": "StatefulPartitionedCall/gradient_boosted_trees_model_5/StatefulPartitionedCall/PartitionedCall/strided_slice_1/stack", "shape": [2], "dtype": "int32"}, {"name": "StatefulPartitionedCall/gradient_boosted_trees_model_5/StatefulPartitionedCall/PartitionedCall/strided_slice_1/stack_1", "shape": [2], "dtype": "int32"}, {"name": "StatefulPartitionedCall/gradient_boosted_trees_model_5/StatefulPartitionedCall/PartitionedCall/strided_slice_1/stack_2", "shape": [2], "dtype": "int32"}, {"name": "StatefulPartitionedCall/gradient_boosted_trees_model_5/StatefulPartitionedCall/PartitionedCall/strided_slice_10/stack", "shape": [2], "dtype": "int32"}, {"name": "StatefulPartitionedCall/gradient_boosted_trees_model_5/StatefulPartitionedCall/PartitionedCall/strided_slice_10/stack_1", "shape": [2], "dtype": "int32"}, {"name": "StatefulPartitionedCall/gradient_boosted_trees_model_5/StatefulPartitionedCall/PartitionedCall/strided_slice_10/stack_2", "shape": [2], "dtype": "int32"}, {"name": "StatefulPartitionedCall/gradient_boosted_trees_model_5/StatefulPartitionedCall/PartitionedCall/strided_slice_11/stack", "shape": [2], "dtype": "int32"}, {"name": "StatefulPartitionedCall/gradient_boosted_trees_model_5/StatefulPartitionedCall/PartitionedCall/strided_slice_11/stack_1", "shape": [2], "dtype": "int32"}, {"name": "StatefulPartitionedCall/gradient_boosted_trees_model_5/StatefulPartitionedCall/PartitionedCall/strided_slice_11/stack_2", "shape": [2], "dtype": "int32"}, {"name": "StatefulPartitionedCall/gradient_boosted_trees_model_5/StatefulPartitionedCall/PartitionedCall/strided_slice_12/stack", "shape": [2], "dtype": "int32"}, {"name": "StatefulPartitionedCall/gradient_boosted_trees_model_5/StatefulPartitionedCall/PartitionedCall/strided_slice_12/stack_1", "shape": [2], "dtype": "int32"}, {"name": "StatefulPartitionedCall/gradient_boosted_trees_model_5/StatefulPartitionedCall/PartitionedCall/strided_slice_12/stack_2", "shape": [2], "dtype": "int32"}, {"name": "StatefulPartitionedCall/gradient_boosted_trees_model_5/StatefulPartitionedCall/PartitionedCall/strided_slice_13/stack", "shape": [2], "dtype": "int32"}, {"name": "StatefulPartitionedCall/gradient_boosted_trees_model_5/StatefulPartitionedCall/PartitionedCall/strided_slice_13/stack_1", "shape": [2], "dtype": "int32"}, {"name": "StatefulPartitionedCall/gradient_boosted_trees_model_5/StatefulPartitionedCall/PartitionedCall/strided_slice_13/stack_2", "shape": [2], "dtype": "int32"}, {"name": "StatefulPartitionedCall/gradient_boosted_trees_model_5/StatefulPartitionedCall/PartitionedCall/strided_slice_14/stack", "shape": [2], "dtype": "int32"}, {"name": "StatefulPartitionedCall/gradient_boosted_trees_model_5/StatefulPartitionedCall/PartitionedCall/strided_slice_14/stack_1", "shape": [2], "dtype": "int32"}, {"name": "StatefulPartitionedCall/gradient_boosted_trees_model_5/StatefulPartitionedCall/PartitionedCall/strided_slice_14/stack_2", "shape": [2], "dtype": "int32"}, {"name": "StatefulPartitionedCall/gradient_boosted_trees_model_5/StatefulPartitionedCall/PartitionedCall/strided_slice_15/stack", "shape": [2], "dtype": "int32"}, {"name": "StatefulPartitionedCall/gradient_boosted_trees_model_5/StatefulPartitionedCall/PartitionedCall/strided_slice_15/stack_1", "shape": [2], "dtype": "int32"}, {"name": "StatefulPartitionedCall/gradient_boosted_trees_model_5/StatefulPartitionedCall/PartitionedCall/strided_slice_15/stack_2", "shape": [2], "dtype": "int32"}, {"name": "StatefulPartitionedCall/gradient_boosted_trees_model_5/StatefulPartitionedCall/PartitionedCall/strided_slice_16/stack", "shape": [2], "dtype": "int32"}, {"name": "StatefulPartitionedCall/gradient_boosted_trees_model_5/StatefulPartitionedCall/PartitionedCall/strided_slice_16/stack_1", "shape": [2], "dtype": "int32"}, {"name": "StatefulPartitionedCall/gradient_boosted_trees_model_5/StatefulPartitionedCall/PartitionedCall/strided_slice_16/stack_2", "shape": [2], "dtype": "int32"}, {"name": "StatefulPartitionedCall/gradient_boosted_trees_model_5/StatefulPartitionedCall/PartitionedCall/strided_slice_17/stack", "shape": [2], "dtype": "int32"}, {"name": "StatefulPartitionedCall/gradient_boosted_trees_model_5/StatefulPartitionedCall/PartitionedCall/strided_slice_17/stack_1", "shape": [2], "dtype": "int32"}, {"name": "StatefulPartitionedCall/gradient_boosted_trees_model_5/StatefulPartitionedCall/PartitionedCall/strided_slice_17/stack_2", "shape": [2], "dtype": "int32"}, {"name": "StatefulPartitionedCall/gradient_boosted_trees_model_5/StatefulPartitionedCall/PartitionedCall/strided_slice_18/stack", "shape": [2], "dtype": "int32"}, {"name": "StatefulPartitionedCall/gradient_boosted_trees_model_5/StatefulPartitionedCall/PartitionedCall/strided_slice_18/stack_1", "shape": [2], "dtype": "int32"}, {"name": "StatefulPartitionedCall/gradient_boosted_trees_model_5/StatefulPartitionedCall/PartitionedCall/strided_slice_18/stack_2", "shape": [2], "dtype": "int32"}, {"name": "StatefulPartitionedCall/gradient_boosted_trees_model_5/StatefulPartitionedCall/PartitionedCall/strided_slice_19/stack", "shape": [2], "dtype": "int32"}, {"name": "StatefulPartitionedCall/gradient_boosted_trees_model_5/StatefulPartitionedCall/PartitionedCall/strided_slice_19/stack_1", "shape": [2], "dtype": "int32"}, {"name": "StatefulPartitionedCall/gradient_boosted_trees_model_5/StatefulPartitionedCall/PartitionedCall/strided_slice_19/stack_2", "shape": [2], "dtype": "int32"}, {"name": "StatefulPartitionedCall/gradient_boosted_trees_model_5/StatefulPartitionedCall/PartitionedCall/strided_slice_2/stack", "shape": [2], "dtype": "int32"}, {"name": "StatefulPartitionedCall/gradient_boosted_trees_model_5/StatefulPartitionedCall/PartitionedCall/strided_slice_2/stack_1", "shape": [2], "dtype": "int32"}, {"name": "StatefulPartitionedCall/gradient_boosted_trees_model_5/StatefulPartitionedCall/PartitionedCall/strided_slice_2/stack_2", "shape": [2], "dtype": "int32"}, {"name": "StatefulPartitionedCall/gradient_boosted_trees_model_5/StatefulPartitionedCall/PartitionedCall/strided_slice_20/stack", "shape": [2], "dtype": "int32"}, {"name": "StatefulPartitionedCall/gradient_boosted_trees_model_5/StatefulPartitionedCall/PartitionedCall/strided_slice_20/stack_1", "shape": [2], "dtype": "int32"}, {"name": "StatefulPartitionedCall/gradient_boosted_trees_model_5/StatefulPartitionedCall/PartitionedCall/strided_slice_20/stack_2", "shape": [2], "dtype": "int32"}, {"name": "StatefulPartitionedCall/gradient_boosted_trees_model_5/StatefulPartitionedCall/PartitionedCall/strided_slice_21/stack", "shape": [2], "dtype": "int32"}, {"name": "StatefulPartitionedCall/gradient_boosted_trees_model_5/StatefulPartitionedCall/PartitionedCall/strided_slice_21/stack_1", "shape": [2], "dtype": "int32"}, {"name": "StatefulPartitionedCall/gradient_boosted_trees_model_5/StatefulPartitionedCall/PartitionedCall/strided_slice_21/stack_2", "shape": [2], "dtype": "int32"}, {"name": "StatefulPartitionedCall/gradient_boosted_trees_model_5/StatefulPartitionedCall/PartitionedCall/strided_slice_22/stack", "shape": [2], "dtype": "int32"}, {"name": "StatefulPartitionedCall/gradient_boosted_trees_model_5/StatefulPartitionedCall/PartitionedCall/strided_slice_22/stack_1", "shape": [2], "dtype": "int32"}, {"name": "StatefulPartitionedCall/gradient_boosted_trees_model_5/StatefulPartitionedCall/PartitionedCall/strided_slice_22/stack_2", "shape": [2], "dtype": "int32"}, {"name": "StatefulPartitionedCall/gradient_boosted_trees_model_5/StatefulPartitionedCall/PartitionedCall/strided_slice_23/stack", "shape": [2], "dtype": "int32"}, {"name": "StatefulPartitionedCall/gradient_boosted_trees_model_5/StatefulPartitionedCall/PartitionedCall/strided_slice_23/stack_1", "shape": [2], "dtype": "int32"}, {"name": "StatefulPartitionedCall/gradient_boosted_trees_model_5/StatefulPartitionedCall/PartitionedCall/strided_slice_23/stack_2", "shape": [2], "dtype": "int32"}, {"name": "StatefulPartitionedCall/gradient_boosted_trees_model_5/StatefulPartitionedCall/PartitionedCall/strided_slice_3/stack", "shape": [2], "dtype": "int32"}, {"name": "StatefulPartitionedCall/gradient_boosted_trees_model_5/StatefulPartitionedCall/PartitionedCall/strided_slice_3/stack_1", "shape": [2], "dtype": "int32"}, {"name": "StatefulPartitionedCall/gradient_boosted_trees_model_5/StatefulPartitionedCall/PartitionedCall/strided_slice_3/stack_2", "shape": [2], "dtype": "int32"}, {"name": "StatefulPartitionedCall/gradient_boosted_trees_model_5/StatefulPartitionedCall/PartitionedCall/strided_slice_4/stack", "shape": [2], "dtype": "int32"}, {"name": "StatefulPartitionedCall/gradient_boosted_trees_model_5/StatefulPartitionedCall/PartitionedCall/strided_slice_4/stack_1", "shape": [2], "dtype": "int32"}, {"name": "StatefulPartitionedCall/gradient_boosted_trees_model_5/StatefulPartitionedCall/PartitionedCall/strided_slice_4/stack_2", "shape": [2], "dtype": "int32"}, {"name": "StatefulPartitionedCall/gradient_boosted_trees_model_5/StatefulPartitionedCall/PartitionedCall/strided_slice_5/stack", "shape": [2], "dtype": "int32"}, {"name": "StatefulPartitionedCall/gradient_boosted_trees_model_5/StatefulPartitionedCall/PartitionedCall/strided_slice_5/stack_1", "shape": [2], "dtype": "int32"}, {"name": "StatefulPartitionedCall/gradient_boosted_trees_model_5/StatefulPartitionedCall/PartitionedCall/strided_slice_5/stack_2", "shape": [2], "dtype": "int32"}, {"name": "StatefulPartitionedCall/gradient_boosted_trees_model_5/StatefulPartitionedCall/PartitionedCall/strided_slice_6/stack", "shape": [2], "dtype": "int32"}, {"name": "StatefulPartitionedCall/gradient_boosted_trees_model_5/StatefulPartitionedCall/PartitionedCall/strided_slice_6/stack_1", "shape": [2], "dtype": "int32"}, {"name": "StatefulPartitionedCall/gradient_boosted_trees_model_5/StatefulPartitionedCall/PartitionedCall/strided_slice_6/stack_2", "shape": [2], "dtype": "int32"}, {"name": "StatefulPartitionedCall/gradient_boosted_trees_model_5/StatefulPartitionedCall/PartitionedCall/strided_slice_7/stack", "shape": [2], "dtype": "int32"}, {"name": "StatefulPartitionedCall/gradient_boosted_trees_model_5/StatefulPartitionedCall/PartitionedCall/strided_slice_7/stack_1", "shape": [2], "dtype": "int32"}, {"name": "StatefulPartitionedCall/gradient_boosted_trees_model_5/StatefulPartitionedCall/PartitionedCall/strided_slice_7/stack_2", "shape": [2], "dtype": "int32"}, {"name": "StatefulPartitionedCall/gradient_boosted_trees_model_5/StatefulPartitionedCall/PartitionedCall/strided_slice_8/stack", "shape": [2], "dtype": "int32"}, {"name": "StatefulPartitionedCall/gradient_boosted_trees_model_5/StatefulPartitionedCall/PartitionedCall/strided_slice_8/stack_1", "shape": [2], "dtype": "int32"}, {"name": "StatefulPartitionedCall/gradient_boosted_trees_model_5/StatefulPartitionedCall/PartitionedCall/strided_slice_8/stack_2", "shape": [2], "dtype": "int32"}, {"name": "StatefulPartitionedCall/gradient_boosted_trees_model_5/StatefulPartitionedCall/PartitionedCall/strided_slice_9/stack", "shape": [2], "dtype": "int32"}, {"name": "StatefulPartitionedCall/gradient_boosted_trees_model_5/StatefulPartitionedCall/PartitionedCall/strided_slice_9/stack_1", "shape": [2], "dtype": "int32"}, {"name": "StatefulPartitionedCall/gradient_boosted_trees_model_5/StatefulPartitionedCall/PartitionedCall/strided_slice_9/stack_2", "shape": [2], "dtype": "int32"}, {"name": "StatefulPartitionedCall/gradient_boosted_trees_model_5/StatefulPartitionedCall/Const", "shape": [0, 0], "dtype": "float32"}, {"name": "StatefulPartitionedCall/gradient_boosted_trees_model_5/StatefulPartitionedCall/Const_1", "shape": [0, 0], "dtype": "int32"}, {"name": "StatefulPartitionedCall/gradient_boosted_trees_model_5/StatefulPartitionedCall/RaggedConstant/values", "shape": [0], "dtype": "int32"}, {"name": "StatefulPartitionedCall/gradient_boosted_trees_model_5/StatefulPartitionedCall/RaggedConstant/Const", "shape": [1], "dtype": "int32"}, {"name": "StatefulPartitionedCall/gradient_boosted_trees_model_5/StatefulPartitionedCall/RaggedConstant/Const_1", "shape": [1], "dtype": "int32"}, {"name": "StatefulPartitionedCall/gradient_boosted_trees_model_5/StatefulPartitionedCall/PartitionedCall_1/strided_slice/stack", "shape": [2], "dtype": "int32"}, {"name": "StatefulPartitionedCall/gradient_boosted_trees_model_5/StatefulPartitionedCall/PartitionedCall_1/strided_slice/stack_1", "shape": [2], "dtype": "int32"}, {"name": "StatefulPartitionedCall/gradient_boosted_trees_model_5/StatefulPartitionedCall/PartitionedCall_1/strided_slice/stack_2", "shape": [2], "dtype": "int32"}, {"name": "1078", "shape": [], "dtype": "string"}]}]}